assets/ml_models/hand_written_digit_model.tflite (tflite, 319512 bytes, 4 tensors)

dense_3/bias f4 [10]
000000 84 d1 9c bd 8e 81 8e bd b7 96 0d bd f2 95 12 be
       -0.076571494 -0.06958304 -0.03456756 -0.14315012
000010 5d 33 2f 3d ba 2e a3 3c e3 c0 83 3c 32 3c 86 bd
       0.042773593 0.019919742 0.016083186 -0.0655445
000020 62 99 85 3e 44 c8 96 bc
       0.26093584 -0.018406041

dense_2/bias f4 [100]
000000 4c ee b2 3d 87 86 a5 bd a4 47 48 bd a8 71 fa bd
       0.08736858 -0.080823 -0.048896447 -0.122287095
000010 48 d2 30 3e 1d b1 ad 3a 5d d5 60 bd dd 5b b9 bc
       0.17267716 0.0013251636 -0.05489098 -0.022626812
000020 86 be c8 3d 04 65 2a 3d 88 ab b2 3d e8 d8 9f 3e
       0.098019645 0.041600242 0.08724123 0.31220174
000030 f2 5d 16 be 05 dd 26 3e ec e4 48 3d 9a 14 1c be
       -0.14684275 0.1629525 0.049046442 -0.15242234
000040 c9 f0 bd 3d 4a a9 f3 bd 7a a3 05 be 67 43 e4 3d
       0.09274442 -0.11897524 -0.13050643 0.111456685
000050 42 75 31 bd 1f ca fe 3d 0d 2b cf 3d 63 c7 46 3e
       -0.043324716 0.12440895 0.10115633 0.19411997
000060 aa 55 8e 3d 94 4e 88 bd f8 29 96 3d 79 44 a6 3d
       0.06949933 -0.066556126 0.07332224 0.08118529
000070 da d6 21 3c 73 7f 6a 3c 3b 35 67 bd c2 0f c0 bd
       0.009877885 0.014312613 -0.05644725 -0.093780056
000080 12 c2 8c 3e 11 fd 33 be cb e7 3d bc 51 26 08 bd
       0.27491814 -0.17577006 -0.011590908 -0.033239666
000090 b3 ff 6c bd cd fc 9f 3d d2 9c dd 3c e5 72 80 bd
       -0.05786104 0.0781189 0.027052317 -0.062719144
0000a0 92 3e 2a 3d f3 40 75 3c 70 bc 61 bd e4 d4 d1 ba
       0.041563578 0.014969098 -0.05511135 -0.0016008881
0000b0 6d 31 60 3e 0e 64 73 3d 98 6e e4 3d e9 7a df 3d
       0.21893854 0.05942159 0.111539066 0.10912115
0000c0 fd 2c 71 3d a3 bb d2 3d 88 c7 11 bd 62 d8 5b bc
       0.058880795 0.10289695 -0.03559068 -0.013418289
0000d0 e0 ea ac 3b 3a 8e 7e 3b 31 bb 86 3d e1 49 83 3c
       0.0052770227 0.0038842098 0.06578673 0.01602644
0000e0 4c 95 37 3d 37 c9 a9 3e 6d 43 5e bc 80 05 3c 3e
       0.044820115 0.33161327 -0.01356588 0.18361473
0000f0 6e a2 90 3d 32 e5 4b 3d 94 5c 1b bd 85 6e 36 bd
       0.07062231 0.049779125 -0.037930086 -0.044538993
000100 4e 9b 68 3d 17 fb 22 3d f6 0b 9c 3d 87 62 42 3d
       0.056788735 0.03979024 0.07619469 0.047457244
000110 4d b7 a7 3d d0 3c c5 bd ae 75 39 3d 2f 2b f4 3d
       0.08189259 -0.0963074 0.045278244 0.11922299
000120 15 69 3e 3e ea e3 dd b8 03 ea 0a 3e 6a 66 6b bd
       0.18594773 -0.000105805535 0.13565831 -0.057470717
000130 ce 4f df 3d db c1 0a 3e af 06 ca 3d 99 d4 ec bb
       0.109038934 0.13550512 0.09864556 -0.007227492
000140 15 f3 70 3e 11 83 16 3e 27 76 01 3e 4d ed 94 bc
       0.23530228 0.14698435 0.12642728 -0.01817956
000150 66 93 4e bd cc 55 b5 3d 75 ea 29 be 2a 9e 6f 3d
       -0.05043354 0.08854255 -0.16593345 0.058500446
000160 65 66 a0 bd 70 cb f7 bd 4b 63 9a 3d 9d c8 12 bd
       -0.0783203 -0.120993495 0.0753847 -0.03583585
000170 e2 fa 21 3b bf 52 66 3c e6 0f f3 bc 61 60 c0 3c
       0.0024716188 0.014057814 -0.029670667 0.023483457
000180 1d 72 34 3d fa 42 40 3e ab 6c 0e 3d 64 ce ff bd
       0.04405414 0.1877555 0.034771603 -0.12490538

sequential_2/dense_2/MatMul f4 [100, 784]
000000 3e 11 21 3d cc dd 86 bd e0 8f f3 3c 08 ef 08 bd
       0.039323084 -0.06585273 0.02973169 -0.033431083
000010 9c 68 b5 bc 24 28 3f bd 0f 29 88 bd 0c 96 d7 3c
       -0.022144608 -0.04666914 -0.06648456 0.026316665
000020 a0 8c c1 bb b7 26 1b bd 56 2b c4 bc 9c 89 57 3d
       -0.0059066564 -0.03787872 -0.023946445 0.05262147
000030 37 09 b2 3d 6d 35 f0 3c 92 91 66 bc 3b 93 92 3d
       0.08693164 0.02932235 -0.014072793 0.07156988
000040 2b 94 02 bd f4 bf 69 3d b4 6d a1 bd 04 87 b5 3c
       -0.031879585 0.057067826 -0.07882252 0.022159107
000050 64 82 16 3d 63 21 18 bd c4 d3 3b bd dc 72 9d bc
       0.036745444 -0.037141215 -0.045856252 -0.019219808
000060 48 39 3d 3c 0c 11 4a 3d 4a 21 a8 3d 06 45 28 3d
       0.011549301 0.049332663 0.082094744 0.04108145
000070 5c 5e 91 bd f0 3d 44 3d 80 b1 a1 bb d5 e4 01 bd
       -0.07098076 0.04791063 -0.0049344897 -0.03171237
000080 b4 fa ba bc b3 11 94 bd e0 a2 cf 3c 63 9c ec 3d
       -0.022824623 -0.07229938 0.02534622 0.11553266
000090 e7 35 96 3d 5c b2 09 3d 9d b9 43 bd 12 38 47 3d
       0.073345 0.033617362 -0.047784436 0.048637457
0000a0 35 e2 00 3e d0 3e 90 3d 94 49 4b be 84 b0 22 be
       0.12586291 0.070432305 -0.19852287 -0.15887648
0000b0 14 82 91 3d f0 19 1d 3e 64 38 0a 3d 9a 77 a4 bd
       0.071048886 0.15341926 0.033745185 -0.08030625
0000c0 f0 09 b6 bd 9d 97 89 bc d3 6e af bd 5e b0 eb bc
       -0.08888614 -0.016795928 -0.0856606 -0.028770622
0000d0 64 f6 aa 3c 10 08 7e 3d 44 d7 97 3d 04 d8 70 3d
       0.020869441 0.062019408 0.074141055 0.05879976
0000e0 57 1d 39 bd 88 5f 7e 3c e0 0e 7f bd 86 7f 0d bc
       -0.045193996 0.015525706 -0.062270045 -0.008636361
0000f0 ce 24 80 bd 19 8a 65 bd 5b 7d 25 3e 88 61 02 bd
       -0.0625702 -0.056039903 0.161611 -0.031831294
000100 18 59 05 3c 0f 12 79 be eb ed a9 bc 25 7e ab 3d
       0.008138917 -0.24323295 -0.020743331 0.083736695
000110 eb a0 3c 3e 74 4b 43 be 6d 74 14 be 0a c2 45 be
       0.1842076 -0.19071752 -0.14497538 -0.19312301
000120 e4 d9 01 be 43 6a 13 bd 36 7b 8a bc b3 d5 19 be
       -0.12680775 -0.03599001 -0.016904455 -0.15022926
000130 c2 a5 98 be 4d 9a 83 bd 7b 9d e0 3d 97 c9 36 3d
       -0.29813963 -0.06425915 0.10967537 0.044625845
000140 3d d7 80 bc ac 52 85 ba ea e4 54 bd 38 37 3e bc
       -0.015727634 -0.0010171733 -0.051976122 -0.011609845
000150 54 29 f1 3c f0 27 c4 3b d0 00 55 be ca db 36 bd
       0.029438652 0.0059862062 -0.20801091 -0.0446432
000160 a8 9f 80 3e 23 40 9e 3e 8c 3e 45 3e 5c 80 93 3e
       0.25121808 0.30908307 0.19262141 0.28808868
000170 05 08 63 3d 05 a2 e5 bd e7 85 f0 3c 44 b2 d4 3e
       0.05542757 -0.112125434 0.029360725 0.41542256
000180 58 c4 9a 3e fa cb 0e 3e 62 9f 7e 3e 05 bc 5a 3e
       0.30227923 0.13944998 0.24865487 0.21360786
000190 e6 b5 78 3c f5 f4 06 bd 6e 2e 63 bd 4b 78 04 3d
       0.015180087 -0.032948453 -0.0554642 0.032341283
0001a0 16 1a 6a 3e 6a 2b 9d 3d 3e 3f 9d be a1 c3 bd be
       0.22861513 0.07674296 -0.30712312 -0.37063316
0001b0 b1 f9 ac bd 11 ca c4 3d c9 ff c6 3d 56 b7 0d bd
       -0.08446062 0.096088536 0.09716756 -0.03459867
0001c0 6f 1f 46 bd 4b a6 c1 3b c7 a4 66 be 24 6b 64 3d
       -0.04836982 0.0059097162 -0.22523795 0.05576624
0001d0 e4 3c 06 3e 02 a9 af 3c 9f 02 45 3d 5d 2c 79 3e
       0.13109165 0.021442894 0.048098203 0.2433333
0001e0 fb f1 e9 3d 27 07 26 3d 67 c4 eb 3e 1b 33 0f 3e
       0.11423107 0.040534165 0.4604828 0.13984339
0001f0 48 78 0c 3d 7b 8d b3 3d a0 6f 82 bc 53 57 3f bc
       0.034294397 0.0876722 -0.015922368 -0.011678535
000200 aa c1 51 3e 2a 8c 95 3d 6c b7 16 3e 9f 27 1b 3e
       0.20484033 0.07302125 0.14718407 0.15151833
000210 5a 4e 46 3e 4a c4 0a 3e 01 9a c7 3d 4f 78 bb 3d
       0.19365826 0.13551441 0.09746171 0.091538064
000220 72 c2 5c 3e 1b 53 16 3e 3d 14 07 bd 1c 35 bd 3c
       0.2155855 0.1468014 -0.032978285 0.023096614
000230 30 a4 2d bc fc c2 5a bd 81 36 5f be d8 fb 00 3f
       -0.010598227 -0.053408608 -0.21798135 0.50384283
000240 3f 91 d1 3d fd fd 86 be 01 10 4f bd 80 4e 00 be
       0.102327816 -0.26365653 -0.050552372 -0.12529945
000250 94 fb 1b be 68 ca 9d bd b6 66 24 bd 87 e7 6d be
       -0.15232688 -0.077046216 -0.040137015 -0.23232852
000260 20 e2 02 be 18 6d 2b bc 57 cc 60 3d c3 4c 44 3e
       -0.12781572 -0.010463022 0.054882374 0.19169907
000270 8e 45 70 3d ab 66 47 3d 5a 3c 52 3d 99 a0 99 3e
       0.058660083 0.048681896 0.051327087 0.3000534
000280 57 b0 c2 3e 90 30 78 3e 2a ec f9 3e 0f f4 d8 3e
       0.38025162 0.24237275 0.4881299 0.42373702
000290 5e af 21 3e 4a f6 c8 bd 04 1f 06 3e cb 62 12 3e
       0.15789554 -0.09812601 0.13097769 0.14295499
0002a0 78 bc 5e 3d 41 bb 99 3c d0 7c 0d 3e 72 6c 28 3e
       0.054378957 0.018766047 0.13817143 0.16447619
0002b0 24 c1 21 3e 84 d5 b5 bc 57 15 b1 bd f8 9f 18 be
       0.15796334 -0.022196539 -0.086466484 -0.14904773
0002c0 df c3 34 be 56 64 ab be cb 75 a1 be 90 7e ad be
       -0.17652844 -0.33474988 -0.3153518 -0.33885622
0002d0 a3 46 19 be b4 50 c7 3b fa 08 69 3d 33 00 40 3e
       -0.14968352 0.0060826186 0.056893326 0.18750076
0002e0 c9 c9 20 3e 13 7d 13 be 59 1c 59 be 66 7a 49 3d
       0.15701975 -0.14403181 -0.2120222 0.049188994
0002f0 83 8d d2 3d 26 29 d8 bc 54 88 78 3d 8b 73 81 3e
       0.102808975 -0.026386809 0.060676888 0.25283465
000300 f5 d3 a6 3e 3e 8c 97 3e be c6 5d 3e 42 ee 83 bc
       0.32583585 0.29599184 0.21657845 -0.016104821
000310 c6 1f 9d 3d 62 6e a9 bd 71 02 fb 3c ae 38 06 3e
       0.07672076 -0.08273007 0.030640813 0.13107559
000320 c8 8d 4a 3e 12 d4 0a bd 60 cb 29 be fb a7 0b be
       0.19780648 -0.033893652 -0.16581488 -0.13638298
000330 2a 66 2a be a0 c5 86 be 7f 12 02 bf 47 fc 42 be
       -0.16640535 -0.2632265 -0.5080947 -0.19041549
000340 5c 44 ad ba c8 91 6e bc a9 42 9b 3d c4 75 9d 3d
       -0.0013219225 -0.014561124 0.07581074 0.07688478
000350 fa 77 6b 3d 93 6e d9 3c 80 88 77 be 89 27 e6 ba
       0.057487465 0.026541984 -0.24173164 -0.001755939
000360 13 32 0e be 87 2d f8 bd 9d 25 01 3c 16 21 58 3c
       -0.1388629 -0.12118059 0.007882503 0.013191482
000370 46 a0 97 3c 06 3f 09 3e ab 15 8c 3e de cd 70 3e
       0.018509042 0.13402948 0.2736028 0.23516032
000380 f2 0a 74 3e ed 7c 77 3b 34 34 1c be 4b 5b 94 bd
       0.238323 0.003776367 -0.15254289 -0.07243975
000390 3c 3f fb 3d 08 a4 1b 3e 76 ba cf 3a 06 13 aa 3d
       0.122679204 0.15199292 0.0015848416 0.0830441
0003a0 e3 79 1d be 18 cd 0c be ac 9a 98 bd 80 52 fa bd
       -0.15378527 -0.13750112 -0.07451376 -0.12222767
0003b0 00 2c a8 bb 71 f9 45 3c 72 b8 f1 3d 3a e5 8c 3c
       -0.0051321983 0.012083397 0.11802758 0.017199147
0003c0 bc 9b 33 bd cd a2 35 bd ee 1f f5 bc e0 60 bb bd
       -0.04384969 -0.044344712 -0.029922452 -0.09149337
0003d0 85 44 31 3e e1 31 07 3e 04 0f 88 bc 21 1a 50 3d
       0.17311294 0.13202621 -0.016608723 0.05080617
0003e0 02 39 8b 3e 19 89 38 3e 3e 77 a9 3e e7 ae f5 3d
       0.2719193 0.18021049 0.33098787 0.119962506
0003f0 4e 96 db bd af 5d 6c bd 75 91 fe 3b ab 9b 06 be
       -0.10722028 -0.05770653 0.0077688047 -0.1314532

sequential_2/dense_3/MatMul f4 [10, 100]
000000 20 37 f6 3d 37 00 8b 3e a6 35 80 bd 21 ef 94 3e
       0.12022233 0.271486 -0.062602326 0.2908869
000010 9c 85 1a bf e7 35 66 3e 5f d3 fa be 93 cb 63 3e
       -0.6036012 0.224815 -0.48989388 0.22245626
000020 97 0f 17 be ab bd 08 bf a9 42 06 be 20 f2 cf be
       -0.14752041 -0.5341441 -0.13111366 -0.40614414
000030 e7 a3 09 bf 8e 74 4a 3e 4b 83 45 3c f5 bc 33 3e
       -0.5376572 0.19771025 0.012055228 0.1755255
000040 e7 af d5 3d ef b6 cb 3e e4 ae da be a2 f8 a1 be
       0.10433941 0.39788005 -0.42711556 -0.31635004
000050 49 71 a6 3d 07 63 d2 be 41 50 4d 3e d5 c5 fe bd
       0.08127076 -0.41091177 0.20050146 -0.12440077
000060 79 84 10 be d9 eb a1 be b5 5b a0 be d7 85 8f 3e
       -0.14113034 -0.3162525 -0.31319967 0.280318
000070 31 a8 05 3e c3 c1 85 3e 51 28 93 be c2 07 53 3e
       0.13052441 0.2612439 -0.28741696 0.20608428
000080 1d f4 6c 3e 79 7d 71 3e d2 a3 02 bf 16 11 3e bf
       0.23139997 0.2358302 -0.5103122 -0.7424482
000090 65 97 23 3e 47 24 cf 3d 69 59 e8 3d 70 cc 76 be
       0.15975721 0.10114341 0.11345179 -0.24101424
0000a0 ce 25 0f be ca b2 9f be 08 57 10 bf 6a 92 a0 bd
       -0.13979265 -0.31191093 -0.563828 -0.07840426
0000b0 69 0c 7e bc 2b 48 2f 3e b3 4d db be 60 64 8d bf
       -0.0155058885 0.17117374 -0.42832717 -1.1046257
0000c0 23 fe 6f 3e 30 99 a9 bf 59 7a 5a bd f0 2a 54 3e
       0.23436789 -1.3249874 -0.053339336 0.20719504
0000d0 29 98 4a 3e 64 70 7e 3e 2d a1 9b bd 79 53 e1 3e
       0.19784607 0.24847561 -0.07599101 0.44008997
0000e0 8c 8c 5c 3e 89 e3 b4 be 59 ce 7d 3e 6f c2 db 3d
       0.2153799 -0.35329846 0.24785747 0.10730445
0000f0 78 69 34 3e 76 7b 6a 3d f1 c5 b2 3e 6d d5 b4 be
       0.17618358 0.057246648 0.34916642 -0.3531908
000100 12 d8 70 3e ac 8c 37 3e 42 9b 33 3e 5b 07 50 be
       0.23519924 0.17924756 0.17539695 -0.20315306
000110 57 2b b9 3d 1d 23 42 3d b9 e8 26 bf 80 40 ce be
       0.090414695 0.047396768 -0.65198857 -0.40283585
000120 11 81 c9 be 87 a0 b5 be d0 10 4c 3e b5 b2 9a 3d
       -0.39356282 -0.35474035 0.19928288 0.07553617
000130 6d a7 6e bf ee 4d 2e 3e b6 34 5d bd 66 5e 87 3e
       -0.9322422 0.17021915 -0.054005347 0.26439208
000140 ad a3 f5 be ff cd 69 3e 0c d3 32 bf d9 bd 06 bd
       -0.47976437 0.22832488 -0.6985328 -0.032895897
000150 7f ee da 3d 69 6b 22 bf 95 8d 0b 3e a3 e4 8e 3e
       0.10690021 -0.63445145 0.13628228 0.2790881
000160 d4 3c 29 be 6a 05 4c bf 10 43 8d 3e 98 11 3d be
       -0.1652711 -0.7969576 0.27590227 -0.18463743
000170 ec 8f b8 be 89 cc 0b bf 60 39 66 bf 47 94 33 bf
       -0.36047304 -0.5460897 -0.899313 -0.7014813
000180 29 15 1d be 70 42 5d 3d 6e a0 82 3e 41 10 1d bf
       -0.15340103 0.054018438 0.25513023 -0.61352926
000190 7d 71 43 bd 21 a4 12 3e 5c 0b c5 bd 6a 4e ef be
       -0.047715653 0.14320423 -0.09621307 -0.46739513
0001a0 65 ed 03 bf c8 9f ae 3e cf 26 0b be ac 0b 3d bb
       -0.5153411 0.34106278 -0.13589023 -0.0028846068
0001b0 00 77 eb be 3b c8 ac 3e c8 49 82 3d fc 94 df 3d
       -0.45989227 0.33746514 0.06361729 0.109170884
0001c0 ab c8 f5 be b6 75 24 be 26 40 07 bf bb 84 a7 bc
       -0.4800466 -0.16060528 -0.5283226 -0.020449033
0001d0 de e0 34 bf 45 c4 8f 3e 1e 44 9f 3c 56 e7 0a 3e
       -0.7065562 0.2807943 0.01944166 0.1356481
0001e0 c5 00 0f 3e 40 ae ff be e0 04 57 3d 9f 08 11 bf
       0.13965137 -0.4993763 0.052494884 -0.5665378
0001f0 92 43 21 bf 13 ce df 3e 96 85 33 3d 96 e3 cc 3e
       -0.6299373 0.4371191 0.04382857 0.40017384
000200 4e db 11 3e 51 95 e9 3d 8e dc 70 3e 44 ff ca 3e
       0.14243814 0.11405433 0.23521635 0.39647877
000210 a5 d1 04 bf 69 bd e1 3d 82 e5 89 3d ed 49 f4 be
       -0.5188239 0.11022455 0.06733228 -0.4771265
000220 65 5f c3 3d 27 07 8d be b4 4a 8e be c9 b9 9b bf
       0.095396794 -0.2754452 -0.2779137 -1.2166072
000230 af 5e 9f be 9e c4 43 bb 2e 32 f6 bd c2 9f 09 bd
       -0.31126925 -0.0029871832 -0.1202129 -0.033599623
000240 0d d4 d0 be bc 18 bf be f1 df 34 3e 5b e7 ef 3c
       -0.40786782 -0.37323558 0.17663552 0.029285124
000250 0d ae f0 be 9f c8 1b 3e c7 9d 9d be 0a a7 7d 3e
       -0.4700779 0.1521325 -0.30784437 0.24770752
000260 fe 97 8b bf 20 50 10 bf dd 98 be 3b 10 1a 1a bf
       -1.0905759 -0.5637226 0.0058165626 -0.6019602
000270 6f d2 8b bf e6 51 7d 3f 75 9c 98 3e 87 63 28 3f
       -1.0923594 0.9895309 0.29806867 0.65776867
000280 ff cd ac be ba 7f b4 bd ce 4d 13 3e 6b 75 e6 3e
       -0.33750913 -0.088134244 0.14385149 0.45011458
000290 ae 23 ce 3e 8b 27 88 3d a7 c3 2a be cb 9f dd bd
       0.40261596 0.06648167 -0.16676198 -0.10821494
0002a0 50 2f 29 3e a4 10 45 3e 78 68 18 bf 25 d3 17 3f
       0.16521955 0.19244629 -0.59534407 0.59306556
0002b0 17 ba 97 3e 30 ea 5d be a4 e9 c4 3d c6 69 05 3f
       0.29634163 -0.21671367 0.09614876 0.5211452
0002c0 88 b0 1c bd 44 36 2d bf 51 85 d7 3e 6a bc 80 bd
       -0.03825429 -0.6766093 0.420939 -0.06285937
0002d0 2d e4 a0 3e d1 12 58 be 59 9c a1 be 93 17 56 3e
       0.31424084 -0.21100928 -0.31564596 0.2090743
0002e0 12 51 03 bf 03 61 d1 3d f5 c0 2d be 25 3f 2d 3f
       -0.5129558 0.10223582 -0.16968139 0.67674476
0002f0 3e 0b 84 3e 79 8b 18 3e fb c1 d4 3e 6d 0b 3e 3d
       0.25789827 0.14896955 0.41554245 0.046397615
000300 d6 dd 43 bf 24 b9 f5 3e a8 80 56 3e 50 4f 3b 3d
       -0.7651037 0.47992814 0.20947516 0.045729935
000310 f1 e0 61 be e8 5a 4b 3d 6b 07 64 3e 60 0d ca 3d
       -0.22058465 0.04964724 0.22268455 0.09865832
000320 2f e5 08 3e f7 21 9a 3e 81 cc a6 3d 1a 2c 91 3d
       0.13368677 0.30104038 0.08144475 0.0708849
000330 41 f5 9d 3d 11 ad 97 bd 4b cb c6 3e 5a 0a 2e 3d
       0.07712794 -0.07406057 0.38826975 0.04249034
000340 4f 42 22 3c b7 ff 6a 3d b3 43 36 be dd 02 d7 3e
       0.0099035045 0.057372775 -0.17799263 0.41994372
000350 38 f3 e7 bd c3 22 44 3e 89 fe 46 be 9c 45 ce 3e
       -0.11325687 0.19153886 -0.19433035 0.40287483
000360 a6 42 f7 3d f1 50 0b bd 6c ab 2f 3e 07 26 29 3e
       0.12073259 -0.03401274 0.17155236 0.16518413
000370 6d f1 c1 bd c3 1e 46 be 72 cf a7 be 57 84 32 be
       -0.094698764 -0.19347672 -0.32775456 -0.17433296
000380 c3 e0 f9 3d 90 00 93 be 74 09 c7 3d 4c de 3c 3e
       0.12201073 -0.28711367 0.097186 0.18444175
000390 04 7a 41 bf 57 eb a1 3e 99 dc 56 bf e6 0f de 3e
       -0.75576806 0.31624863 -0.83930355 0.43371505
0003a0 8d 3c 3c bf 13 d2 ef bc dc 63 d7 bd 07 ea c9 3e
       -0.73529893 -0.029274976 -0.105170935 0.3943636
0003b0 f7 49 94 be 2b 66 e9 3e 1c db 2e bf 78 22 7d be
       -0.2896268 0.4558576 -0.68303084 -0.2472018
0003c0 70 27 1b be 91 79 3b 3e fc 76 1b bf 4e 1e 58 be
       -0.15151763 0.18308093 -0.6072843 -0.2110531
0003d0 c0 e1 5c bf fb 09 78 bd dd cc 8a 3e 94 b5 35 3d
       -0.8628197 -0.060556393 0.27109423 0.04436262
0003e0 fe 1d 84 be c3 a5 ec be 2c 1c 9e bd 9c e8 0f 3e
       -0.25804132 -0.46220216 -0.07720217 0.14053577
0003f0 92 da e6 be 54 b6 1c be 34 af 9f bb 1e af bd 3d
       -0.4508863 -0.15303928 -0.0048731808 0.092619166
